beta/HAND GESTURE RECOGNITION/hand-gesture-recognition-using-mediapipe-main/hand-gesture-recognition-using-mediapipe-main/model/keypoint_classifier/keypoint_classifier.tflite (tflite, 6676 bytes, 6 tensors)

sequential/dense/BiasAdd/ReadVariableOp f4 [20]
000000 87 4a ec be 8e 7e 33 bf 22 56 e3 be 74 72 73 bf
       -0.4615061 -0.7011498 -0.44401652 -0.95096517
000010 70 db 92 bf d5 a8 22 be 62 ca 1a bf f8 17 df be
       -1.1473217 -0.15884717 -0.6046506 -0.43572974
000020 62 50 12 3f 9e 83 ed be 99 4a df 3d 62 ad 47 bf
       0.57153904 -0.46389478 0.109029 -0.77998936
000030 b1 ed 74 bf 57 ff 46 be bb 7c 27 bf f5 d4 1e be
       -0.9567519 -0.19433342 -0.654247 -0.15510924
000040 18 c4 3f 3f ac de 01 3f 6f 52 55 bf 17 32 f4 be
       0.7490859 0.50730395 -0.8332891 -0.47694466

sequential/dense_2/BiasAdd/ReadVariableOp f4 [7]
000000 fa 22 a0 be 70 a6 5d bd 07 57 3a 3f 05 a8 08 3d
       -0.31276685 -0.054113805 0.72789043 0.03336336
000010 2c 20 c0 be 8b 0e 53 3d 61 f3 12 be
       -0.37524545 0.05152754 -0.14350654

sequential/dense_1/BiasAdd/ReadVariableOp f4 [10]
000000 01 32 16 3f d8 18 ba be 51 cb 53 3f ee 0c 6a 3e
       0.5867005 -0.3634708 0.8273211 0.22856495
000010 a7 20 c6 3e f8 3e 34 be 9c 96 dc be 1c f8 22 3e
       0.38696787 -0.17602146 -0.43083656 0.15914959
000020 54 dc 80 3f 9d 1e db be
       1.0067239 -0.42796794

sequential/dense/MatMul f4 [20, 42]
000000 00 79 1d bc 98 4f 81 3e f7 39 bb bd db c7 09 3f
       -0.009611368 0.25256038 -0.09141915 0.5382058
000010 53 be 93 bc 2e 7a ad 3e f2 c9 27 bd 35 92 8d 3e
       -0.01803509 0.33882278 -0.040964074 0.2765061
000020 70 0b f8 bc 42 27 67 3e f3 ce 0a bc dc 88 5d 3d
       -0.030278891 0.2257357 -0.008472192 0.054085597
000030 e8 3e 4c 3d 03 ff aa 3c 67 7c 67 3d bc 01 32 3d
       0.04986468 0.020873552 0.056515124 0.043458685
000040 82 1a 7f 3d 3e 1d 7f 3d c2 2f 11 3d 70 c3 49 3d
       0.06228114 0.062283747 0.035445936 0.04925865
000050 09 8d 2d 3d 28 b5 01 3e ed 20 b5 bd d6 de 89 bd
       0.04237083 0.12666762 -0.08844171 -0.06731956
000060 be 99 5a be 57 14 71 bf 3e 1a ec 3d 79 24 c7 3d
       -0.2134771 -0.9417166 0.11528443 0.097237535
000070 14 53 7f 3c 48 7a c2 3d 8d 73 d0 bd 8c 20 87 be
       0.015583772 0.094959795 -0.101782896 -0.2639202
000080 8e 1d a6 be b5 3f 24 bf 52 38 02 3e ca 33 4a 3d
       -0.32444423 -0.6415971 0.12716797 0.049365796
000090 98 7c 40 3d 0c 28 b3 3d d0 9d 8c bd ef 63 1e be
       0.04699382 0.08747873 -0.06866038 -0.15467809
0000a0 90 ab dc bc 17 98 ec be 98 f8 2b 3d d2 85 86 be
       -0.026937276 -0.46209785 0.041985124 -0.26273972
0000b0 45 f9 c2 be 2a 7b ce bb 9f f1 c9 be 02 ce 17 be
       -0.38080803 -0.0063013034 -0.39442155 -0.1482468
0000c0 cb 32 68 be 94 a4 0c be bb 44 9c 3d a8 d8 6d bd
       -0.22675626 -0.13734657 0.07630297 -0.058067948
0000d0 36 89 08 bf 13 91 a1 be 4c 0d 87 be 01 e7 00 bf
       -0.5333437 -0.31555995 -0.26377332 -0.50352484
0000e0 c5 9a fa 3b a8 1f 0d be e2 2d b9 3d 5e a1 66 bd
       0.0076478445 -0.13781607 0.090419546 -0.056306235
0000f0 26 ce f0 be 8a 85 82 be a4 0d 3d be 7c 95 a6 bc
       -0.4703228 -0.25492507 -0.18462235 -0.020334952
000100 a6 7f 6d 3e 05 1d 23 3e e9 4e b8 3e b9 97 1d 3e
       0.23193225 0.15929039 0.35997704 0.15389909
000110 6a fa bf be bf 60 2a be e9 3b 6a be b2 da e1 3c
       -0.37495738 -0.16638468 -0.22874416 0.027570102
000120 82 a9 81 3e f3 9d 28 3e f9 7b b5 3e fa 37 26 3e
       0.25324637 0.16466503 0.35446146 0.16232291
000130 3c b3 4a be 2a 74 38 be 39 1d cf be 67 67 f0 bb
       -0.19794935 -0.18013063 -0.40451983 -0.0073365453
000140 00 f4 2d bd 86 48 0c 3e 6b 27 5f 3d 5b 0c 3a 3e
       -0.042469025 0.1369954 0.05448095 0.18168776
000150 a8 5e 4c 3e 0a 21 4c be c7 fd 12 3e 02 0c 4e 3e
       0.19957983 -0.19934478 0.14354621 0.20121768
000160 22 dd 6b bd 6c 5d c9 3d d2 41 ab be 4c 34 24 3e
       -0.057583936 0.09832272 -0.33448654 0.16035575
000170 8c 88 db be b4 01 36 3e 7a b3 86 3e ed e1 3a 3e
       -0.42877614 0.17774087 0.26308805 0.18250246
000180 87 7f c3 3d b4 7f b4 3d 07 69 7a bc fe 0f bd 3c
       0.09545808 0.0881342 -0.0152838295 0.023078915
000190 a5 7a 7c bd a6 c2 80 3c b7 02 66 3e b6 69 2f 3e
       -0.0616404 0.015717816 0.22461973 0.1713017
0001a0 3b a7 a2 bc 13 81 d7 3d 5c 16 c3 3c 7f 55 d3 bd
       -0.019855132 0.10522666 0.023814373 -0.103190415
0001b0 1a 3e bd 3e 84 f0 b3 be fc 17 28 3e f7 e7 36 3e
       0.36961442 -0.35144436 0.164154 0.17861925
0001c0 91 56 18 be 01 3a 82 3d 11 53 52 3e d7 c7 a9 be
       -0.14876772 0.063587196 0.205395 -0.33160278
0001d0 31 7f 53 3f 12 88 54 bf 53 15 80 bd f8 20 59 3e
       0.82615954 -0.83020127 -0.06254067 0.21203983
0001e0 f6 f0 4a be 50 4d f9 3d 0c 09 bf bd 33 95 03 be
       -0.19818482 0.12172949 -0.093278974 -0.12849884
0001f0 53 a2 b2 3e f8 9d ee be 00 12 6f 3e 41 5c 80 be
       0.3488947 -0.46604896 0.2334671 -0.25070384
000200 38 ed 32 3a 09 1a 2e be 6d e3 62 3e 64 14 fa bd
       0.00068255095 -0.17002119 0.22157069 -0.122109205
000210 d2 20 02 3f 54 79 2a bf 65 ea 12 3f 82 53 a5 be
       0.5083133 -0.6659138 0.5738891 -0.32290274
000220 38 4f dd 3a 10 5a 1b be a3 dc 64 bd 04 1e 3b bd
       0.0016884571 -0.15171075 -0.055874478 -0.045682922
000230 0c 03 c7 bd 23 ed ab 3d f7 6c 15 be 4e 59 01 3e
       -0.09717378 0.083948396 -0.14592348 0.12631723
000240 c4 32 b3 3d 83 53 1b be d5 43 8e 3c 26 e4 eb bd
       0.08749917 -0.15168576 0.01736633 -0.11518125
000250 92 04 46 bd 1d 41 84 bd b4 c9 7a 3b ab b3 9e bd
       -0.048344202 -0.06457732 0.0038267197 -0.07749113
000260 24 66 27 3e 16 8c 25 be c4 ea 4f bb ef 77 f3 bd
       0.16347557 -0.1616672 -0.0031725625 -0.1188811
000270 ea 95 02 be 5e e6 d2 bc 2e 2f 0b be 78 04 25 bd
       -0.127525 -0.025744613 -0.13592216 -0.040287465
000280 ba 9b 53 3e 3a e3 94 bd 75 b5 96 bb 86 d3 5a bd
       0.20664874 -0.072699025 -0.004599268 -0.05342438
000290 8b 39 c9 bd ed 56 90 3d dc 20 42 be 6f 43 88 3d
       -0.098254286 0.0704783 -0.18957847 0.06653487
0002a0 ce de 57 be d0 63 57 be 1e 0e 45 be 07 0d f3 be
       -0.21081087 -0.21034169 -0.19243667 -0.47470877
0002b0 7f da 3d bc a0 d5 3c bf 55 50 59 bd 35 f1 68 be
       -0.011587738 -0.73763466 -0.053055126 -0.22748263
0002c0 dc cd a6 be 8b 06 40 be 3f f0 4b bd 84 95 cc bd
       -0.32578933 -0.18752496 -0.049789663 -0.09989455
0002d0 b2 eb 8e 3c 5b 7d c5 bc 57 58 e0 3d 6c 93 c9 3d
       0.017446373 -0.024107626 0.109543495 0.098425716
0002e0 82 f0 be 3d eb df ad 3d af 05 29 be ac 86 05 be
       0.09323217 0.084899746 -0.16506074 -0.13039654
0002f0 3e 6e bc 3d e0 df f8 bd d6 06 8f 3d 9c 0c 1f 3d
       0.092007145 -0.12152076 0.06983726 0.038830385
000300 9c fa d0 3c 7b 1e 9a 3d 9e 1f 3b be 8b 81 29 be
       0.025510125 0.07525345 -0.1827378 -0.16553323
000310 e4 47 49 3d e7 c0 84 be b7 bd 8b 3d cf ab 56 3d
       0.049140826 -0.25928423 0.068232946 0.052409943
000320 3e f9 11 bd 84 41 bf 3d 31 e5 8d bd b8 b0 01 bf
       -0.035638086 0.09338668 -0.069284804 -0.50660276
000330 c8 b0 be 3b 82 12 13 bf 82 16 8a 3b 08 0b 0a bd
       0.005819414 -0.57450116 0.004214109 -0.033701926
000340 15 70 29 bd a1 7c b8 3d b8 85 26 3e 90 2f 0b 3e
       -0.041366655 0.09008146 0.16261947 0.13592362
000350 2a 44 96 3f ee e3 61 bf 4d 97 4a 3f 54 38 bc be
       1.1739552 -0.8823842 0.79137117 -0.36761725
000360 b6 66 45 3f 0f 29 83 be 85 32 2b 3f 56 d6 52 bd
       0.7710985 -0.25617263 0.6687396 -0.051473938
000370 30 b3 69 3c 34 ca 34 3e 2f 53 2d 3e 72 6a e1 bd
       0.014263913 0.1765526 0.16926263 -0.11006631
000380 7d e4 1e be 86 e0 0d bd 93 4b ce be 9f b0 f5 bb
       -0.15516849 -0.03463795 -0.40292034 -0.0074978615
000390 70 7a 58 be 30 05 a4 3e 3c 14 12 3e 3b ba dd bd
       -0.21140456 0.32035208 0.14265531 -0.10826536
0003a0 dc 07 3b 3f c1 bf ca 3c 22 96 3e 3f 3e f7 31 3e
       0.7305887 0.024749639 0.74447834 0.17379472
0003b0 4f 3d ef be 5e c9 b0 3d 91 2c 16 3e 3b 18 a6 bd
       -0.46726462 0.08632158 0.14665438 -0.0811009
0003c0 ba 9c 2a 3f a2 80 df bd 62 55 6e 3f 66 70 88 3d
       0.66645396 -0.10913207 0.93099034 0.06662063
0003d0 d7 f7 6a be ec 9f 77 3e 85 8d f9 bd 6d f5 de bd
       -0.22946106 0.24182099 -0.12185196 -0.10886655
0003e0 c9 2d 01 3e 2c 39 01 bc 9d bb 87 3e 57 03 e1 3d
       0.12615122 -0.007887166 0.26510325 0.10986965
0003f0 38 a7 7e 3e fa cb 94 3e cb d5 f6 bd 0e 03 ef bc
       0.24868476 0.29061872 -0.120524965 -0.029176261

sequential/dense_1/MatMul f4 [10, 20]
000000 e9 1b 0a 3f 08 8f fb bd e6 2e 80 3e be b1 9d 3e
       0.5394884 -0.122831404 0.2503578 0.3079967
000010 91 69 ef be 00 e4 eb bd 29 2f 22 3f 2f 62 4d be
       -0.46760228 -0.11518097 0.6335321 -0.20056985
000020 0f 5a df be ca d7 01 3f e1 54 17 be 84 cf 1a bf
       -0.43623397 0.5071989 -0.14778472 -0.60472894
000030 ab 77 27 be 3a 29 78 3f bd 60 8c 3f eb 26 96 3d
       -0.16354243 0.96937907 1.0967022 0.07331642
000040 90 47 48 bf d6 c7 a0 3e 83 26 6b 3e ec 24 26 bf
       -0.78234196 0.31402463 0.2296391 -0.6490009
000050 65 0b 68 bf c2 7f 1b 3e b5 53 83 bc 12 59 5b be
       -0.90642387 0.15185454 -0.016031126 -0.21420696
000060 56 ac 83 be a4 a5 43 bd 65 f0 4f 3f c3 e3 14 be
       -0.2571742 -0.04776539 0.8122619 -0.14540009
000070 23 33 54 3f e6 9e c0 bb 3e ad 1f 3c e3 56 aa bd
       0.8289053 -0.005878317 0.009745894 -0.083173536
000080 f2 3c 2d 3e a8 c5 b4 bd 5c 0e d3 3e ac 07 fa bc
       0.1691778 -0.088267624 0.41221893 -0.030521236
000090 ea 8d ce 3e 01 b3 72 bb 04 12 cb bf 30 b0 af be
       0.40342647 -0.0037032964 -1.5864873 -0.34314108
0000a0 cb 3b 8d 3e 76 34 7d 3e 3b cc ae bb b5 01 66 3d
       0.2758468 0.24727044 -0.0053344048 0.05615397
0000b0 33 c8 49 3f d3 92 f8 3d 84 d4 0c 3e 04 1e 6a bd
       0.78821105 0.121373795 0.13752943 -0.05715753
0000c0 6f 14 5d be 08 ca 06 be 0a 7f 35 bf 3a d4 b1 3e
       -0.21589826 -0.13163006 -0.7089697 0.3473223
0000d0 22 e7 a8 3e 3b b2 47 bf 70 07 e8 bc 54 6c e3 be
       0.3298884 -0.78006333 -0.028323859 -0.44418585
0000e0 95 d3 1c 3d 18 0c 28 3c 5d 7f 03 3f 1f 2f 46 3d
       0.038287718 0.01025679 0.51366216 0.048384782
0000f0 6c 1d 95 3e 85 7a 5a bf 3e 78 6f 3f a6 32 e5 3e
       0.2912401 -0.853432 0.9354285 0.44765204
000100 03 aa 11 be 54 7e 2c 3f f7 d5 47 3f 78 95 94 3f
       -0.1422501 0.6738026 0.7806086 1.1608114
000110 da da 0c bd 12 f6 f3 3e d3 54 20 3e d5 60 4b be
       -0.0343884 0.47648674 0.15657358 -0.19861157
000120 44 c2 ae be d3 f3 ab bd 3d 0d ec 3e 7d a9 ea 3e
       -0.34132588 -0.08396115 0.4610385 0.45832434
000130 05 bc c5 3e 3b 84 03 be 2f 49 39 3f 90 d6 d3 3c
       0.3862001 -0.1284341 0.72377294 0.025859147
000140 ad 20 e3 3e bc 4d b7 3c 76 fd ad 3e 66 00 22 bc
       0.44360867 0.022375934 0.33982438 -0.00988779
000150 e7 9e 1c 3c f7 c0 f6 3d 87 76 60 bf b8 21 b0 bf
       0.00955937 0.12048524 -0.8768086 -1.376029
000160 a1 7e 47 bf 32 41 17 bf f4 6d 95 3d ce 73 e8 be
       -0.77927595 -0.59083855 0.072963625 -0.45400852
000170 dd bf 34 3d d1 2a 16 3e 87 83 83 3e 01 4f d4 bd
       0.044128288 0.1466477 0.25686285 -0.10366631
000180 ae 2a 01 3f 2b 32 0e 3e 14 d4 96 3d 25 60 77 be
       0.5045575 0.13886325 0.073646694 -0.2415777
000190 12 9d 96 3e 08 96 62 3e 4e 38 58 3e 92 6f 98 3f
       0.2941671 0.22127545 0.21115229 1.1909049
0001a0 c4 02 65 3f 1f 1d 2f 3e e1 a6 5a 3f d8 4d 29 3e
       0.89457345 0.17100953 0.85410887 0.16533601
0001b0 0c 76 00 3e 74 9c 50 be a6 6e 51 3f 4c 0f 86 3e
       0.12545031 -0.20372182 0.8180946 0.26183546
0001c0 4e a6 49 3f 30 f3 70 be 77 23 0b 3f 5e 6a 19 bc
       0.78769386 -0.23530269 0.5435099 -0.009363739
0001d0 26 f7 c3 3e ff 2e 00 bd d9 4e dd 3e cf 99 0b 3f
       0.38274497 -0.03129482 0.43224218 0.5453157
0001e0 a7 84 ab 3d 73 c9 2c 3f 47 79 df 3c 7c 84 f5 be
       0.08374911 0.6749489 0.02727951 -0.4795264
0001f0 48 f7 b1 bd 1a c1 3b be a8 ca 13 3d 37 ce 28 3e
       -0.08689743 -0.18335381 0.03608194 0.16484915
000200 d5 25 70 be 0f 05 40 be 77 06 01 bf cb cf 41 3e
       -0.23451932 -0.1875193 -0.5040049 0.18926923
000210 41 35 8e be 36 90 7d bf 9e 7a d3 bd c0 f5 28 3f
       -0.27775005 -0.99048173 -0.10326122 0.65999985
000220 50 f9 a6 3b f2 d0 6e be d6 8e 16 be f4 ab e4 be
       0.0050956383 -0.23321894 -0.14702925 -0.4466244
000230 b2 43 32 ba e9 2a 14 3f 64 d7 75 3d 9c b8 bc 3f
       -0.00068002485 0.57877976 0.060019866 1.4743838
000240 e5 96 c9 be 0f f3 ea 3e b3 4c 77 3f fe f1 f5 3b
       -0.39372936 0.45888564 0.9660141 0.0075056544
000250 52 76 45 3f 4a 31 7f 3f e1 d1 37 3f ce da 0a 3f
       0.7713367 0.99684584 0.71804625 0.5424012
000260 c7 26 73 3f 17 2c 94 3f 7e 5e 50 3e f5 ce 32 3f
       0.94981045 1.1575955 0.20348546 0.6984704
000270 ef d8 e1 3e 7d 83 77 3f 5e bc b8 3b 1b f4 18 3f
       0.4411082 0.9668501 0.0056376895 0.59747475
000280 ec 74 b5 bf 90 92 37 3f dd ec a1 bf cc 57 f3 bd
       -1.4176307 0.7170801 -1.265041 -0.1188198
000290 94 9a c9 3e c5 07 a8 3e e6 2d 84 be dd 0f 8b bf
       0.39375746 0.32818428 -0.25816268 -1.0864216
0002a0 a8 d1 11 3f 17 c8 cf be a0 0c 05 3f 09 83 6a 3f
       0.56960535 -0.40582344 0.5197239 0.91606194
0002b0 31 f6 12 3e 99 7f 14 3f 6a 3c 33 bf f7 59 9f 3e
       0.14351727 0.580072 -0.7001406 0.31123325
0002c0 40 4b 0d 3f f5 84 9e 3e 6e 28 13 bd 0e e5 3f 3f
       0.5519295 0.30960813 -0.03592723 0.74958885
0002d0 3d 79 85 be ee b5 59 be fb bc 0e 3e d2 57 52 3e
       -0.2606906 -0.21260807 0.13939278 0.20541313
0002e0 50 f0 45 3f f9 03 b0 3e 52 0e 2e be 92 b3 35 be
       0.7731981 0.3437803 -0.1699765 -0.17744282
0002f0 41 2e 9d 3e f9 74 22 3f d4 0c 99 bc 40 1e f0 3d
       0.3069935 0.63459736 -0.018682875 0.1172452
000300 f4 23 bf be a3 22 63 be e7 b7 7a 3f f6 27 ad 3e
       -0.37332118 -0.22181182 0.9793686 0.3381955
000310 4b 1b 88 3b 1a f5 2c be e6 00 ee be 1c c8 02 3f
       0.004153644 -0.16890374 -0.4648506 0.5108659

sequential/dense_2/MatMul f4 [7, 10]
000000 b4 45 16 3e d4 b1 7b 3f fe 7f 40 bf 99 a4 f9 3e
       0.14675027 0.9831822 -0.751953 0.4875839
000010 a9 ed 0d 3f f4 c0 74 3e b4 c2 a5 be 93 b7 29 3f
       0.55440766 0.23901731 -0.3237511 0.6629574
000020 60 75 e8 be 28 a9 1f be d3 2c 6c bf ab df 37 bf
       -0.4540205 -0.15591872 -0.92255896 -0.71825665
000030 27 6e 21 3f d6 a3 a6 be 28 3c 16 bf 00 3b 7b 3f
       0.63058704 -0.32546872 -0.5868554 0.981369
000040 44 ef 8c 3f f4 7a 27 3f 08 1b f0 bd 09 59 7b 3f
       1.1010518 0.65421987 -0.11723906 0.9818273
000050 48 81 50 bf 90 e1 3c bf cb 9c 49 bf 66 57 b9 bd
       -0.8144727 -0.7378168 -0.7875487 -0.09049873
000060 a9 4d 02 bf 53 57 01 bf f8 2f 11 bf 6b b6 ac 3e
       -0.5089975 -0.5052387 -0.5671382 0.33732924
000070 c8 19 ae 3f 11 80 2b bf e3 fa 5a be c0 8a 0c bf
       1.3601618 -0.6699229 -0.21384768 -0.54899216
000080 3e 63 a6 3e f8 c0 27 3f 51 8f 3b 3f e5 5f 42 be
       0.3249759 0.6552882 0.7326556 -0.18981893
000090 48 dc af 3e 95 ad eb bf 18 67 8b be 59 a2 5e 3d
       0.3434775 -1.8412348 -0.27227092 0.054354046
0000a0 b3 41 95 bd 4c f7 07 bf f1 bb 5d bf 0f 0b c3 bf
       -0.07287922 -0.5311172 -0.866149 -1.523775
0000b0 19 70 64 3f c7 2c a1 bf b7 75 02 bf 1a ea 35 3e
       0.8923355 -1.259179 -0.5096087 0.17765084
0000c0 e8 56 1d bf 2d 10 c2 bf 8f d4 67 3f 55 9b 2e 3f
       -0.61460733 -1.5161186 0.90558714 0.6820577
0000d0 24 b4 d5 3d fe 32 c2 bf 0d 6c 2f 3f f5 51 bc bf
       0.1043475 -1.5171812 0.6852425 -1.4712511
0000e0 09 5f 37 bf ff 61 70 3e b6 bd cd bd ba 8b 64 bf
       -0.7162939 0.23474883 -0.1004595 -0.89275706
0000f0 6b 46 5b 3f c5 73 37 bf 52 94 dd be f4 59 ad 3e
       0.85654324 -0.71661025 -0.43277222 0.3385769
000100 1f bc 87 be d2 b1 16 bf e2 75 85 bf a2 e6 07 be
       -0.26510713 -0.5886508 -1.04266 -0.13271573
000110 48 28 42 bf 75 cc e3 be
       -0.75842714 -0.44491926
